…
        "sketched_kernel": "kernel_RS_RBF",
        "accumulation": 1,
        "sampling_factor": 4,
        "no_projection": false,
        "mixed_precision": true,
        "attn_type": "skyformer",
        "random_seed": 42
    },
    {
        "batch_size": 4,
        "learning_rate": 0.0001,
        "warmup": 80,
        "lr_decay": "linear",
        "weight_decay": 0,
        "eval_frequency": 500,
        "num_train_steps": 50000,
        "num_init_steps": 3000,
        "num_eval_steps": 200,
        "patience": 10
    }
]
ModelForSC(
  (model): Model(
    (embeddings): Embeddings(
      (word_embeddings): Embedding(512, 256)
      (position_embeddings): Embedding(4096, 256)
      (dropout): Dropout(p=0.1, inplace=False)
    )
    (transformer_0): TransformerLayer(
      (norm1): LayerNorm((256,), eps=1e-05, elementwise_affine=True)
      (mha): Attention(
        (W_q): Linear(in_features=256, out_features=256, bias=True)
        (W_k): Linear(in_features=256, out_features=256, bias=True)
        (W_v): Linear(in_features=256, out_features=256, bias=True)
        (attn): Skyformer()
        (ff): Linear(in_features=256, out_features=256, bias=True)
      )
      (dropout1): Dropout(p=0.1, inplace=False)
      (norm2): LayerNorm((256,), eps=1e-05, elementwise_affine=True)
      (mlpblock): Sequential(
        (0): Linear(in_features=256, out_features=1024, bias=True)
        (1): GELU(approximate='none')
        (2): Dropout(p=0.1, inplace=False)
        (3): Linear(in_features=1024, out_features=256, bias=True)
        (4): Dropout(p=0.1, inplace=False)
      )
    )
    (transformer_1): TransformerLayer(
      (norm1): LayerNorm((256,), eps=1e-05, elementwise_affine=True)
      (mha): Attention(
        (W_q): Linear(in_features=256, out_features=256, bias=True)
        (W_k): Linear(in_features=256, out_features=256, bias=True)
        (W_v): Linear(in_features=256, out_features=256, bias=True)
        (attn): Skyformer()
        (ff): Linear(in_features=256, out_features=256, bias=True)
      )
      (dropout1): Dropout(p=0.1, inplace=False)
      (norm2): LayerNorm((256,), eps=1e-05, elementwise_affine=True)
      (mlpblock): Sequential(
        (0): Linear(in_features=256, out_features=1024, bias=True)
        (1): GELU(approximate='none')
        (2): Dropout(p=0.1, inplace=False)
        (3): Linear(in_features=1024, out_features=256, bias=True)
        (4): Dropout(p=0.1, inplace=False)
      )
    )
    (transformer_2): TransformerLayer(
      (norm1): LayerNorm((256,), eps=1e-05, elementwise_affine=True)
      (mha): Attention(
        (W_q): Linear(in_features=256, out_features=256, bias=True)
        (W_k): Linear(in_features=256, out_features=256, bias=True)
        (W_v): Linear(in_features=256, out_features=256, bias=True)
        (attn): Skyformer()
        (ff): Linear(in_features=256, out_features=256, bias=True)
      )
      (dropout1): Dropout(p=0.1, inplace=False)
      (norm2): LayerNorm((256,), eps=1e-05, elementwise_affine=True)
      (mlpblock): Sequential(
        (0): Linear(in_features=256, out_features=1024, bias=True)
        (1): GELU(approximate='none')
        (2): Dropout(p=0.1, inplace=False)
        (3): Linear(in_features=1024, out_features=256, bias=True)
        (4): Dropout(p=0.1, inplace=False)
      )
    )
    (transformer_3): TransformerLayer(
      (norm1): LayerNorm((256,), eps=1e-05, elementwise_affine=True)
      (mha): Attention(
        (W_q): Linear(in_features=256, out_features=256, bias=True)
        (W_k): Linear(in_features=256, out_features=256, bias=True)
        (W_v): Linear(in_features=256, out_features=256, bias=True)
        (attn): Skyformer()
        (ff): Linear(in_features=256, out_features=256, bias=True)
      )
      (dropout1): Dropout(p=0.1, inplace=False)
      (norm2): LayerNorm((256,), eps=1e-05, elementwise_affine=True)
      (mlpblock): Sequential(
        (0): Linear(in_features=256, out_features=1024, bias=True)
        (1): GELU(approximate='none')
        (2): Dropout(p=0.1, inplace=False)
        (3): Linear(in_features=1024, out_features=256, bias=True)
        (4): Dropout(p=0.1, inplace=False)
      )
    )
    (norm): LayerNorm((256,), eps=1e-05, elementwise_affine=True)
  )
  (seq_classifer): SCHead(
    (mlpblock): Sequential(
      (0): Linear(in_features=256, out_features=1024, bias=True)
      (1): ReLU()
      (2): Linear(in_features=1024, out_features=2, bias=True)
    )
  )
)
parameter_size: [torch.Size([512, 256]), torch.Size([4096, 256]), torch.Size([256]), torch.Size([256]), torch.Size([256, 256]), torch.Size([256]), torch.Size([256, 256]), torch.Size([256]), torch.Size([256, 256]), torch.Size([256]), torch.Size([256, 256]), torch.Size([256]), torch.Size([256]), torch.Size([256]), torch.Size([1024, 256]), torc
…
